…
wp_sketch0 = cq.Workplane(cq.Plane(cq.Vector(-0.109375, 0.0, -0.0390625), cq.Vector(1.0, 6.123233995736766e-17, -6.123233995736766e-17), cq.Vector(6.123233995736766e-17, -1.0, 6.123233995736766e-17)))
loop0=wp_sketch0.moveTo(0.2109375, 0.0).lineTo(0.2109375, 0.06883223684210527).lineTo(0.0, 0.06883223684210527).lineTo(0.0, 0.0).close()
solid0=wp_sketch0.add(loop0).extrude(0.75, both=True)
solid=solid0
<|im_end|>

[INFO:swift] The TrainArguments will be saved in: /root/paddlejob/workspace/env_xiangle/zcx/swift/output/qwen2_5_vl_7b_coder_8b_stage1/v0-20251208-163017/args.json
[INFO:swift] model: Qwen2_5_VLForConditionalGeneration(
  (model): Qwen2_5_VLModel(
    (visual): Qwen2_5_VisionTransformerPretrainedModel(
      (patch_embed): Qwen2_5_VisionPatchEmbed(
        (proj): Conv3d(3, 1280, kernel_size=(2, 14, 14), stride=(2, 14, 14), bias=False)
      )
      (rotary_pos_emb): Qwen2_5_VisionRotaryEmbedding()
      (blocks): ModuleList(
        (0-31): 32 x Qwen2_5_VLVisionBlock(
          (norm1): Qwen2RMSNorm((1280,), eps=1e-06)
          (norm2): Qwen2RMSNorm((1280,), eps=1e-06)
          (attn): Qwen2_5_VLVisionAttention(
            (qkv): Linear(in_features=1280, out_features=3840, bias=True)
            (proj): Linear(in_features=1280, out_features=1280, bias=True)
          )
          (mlp): Qwen2_5_VLMLP(
            (gate_proj): Linear(in_features=1280, out_features=3420, bias=True)
            (up_proj): Linear(in_features=1280, out_features=3420, bias=True)
            (down_proj): Linear(in_features=3420, out_features=1280, bias=True)
            (act_fn): SiLUActivation()
          )
        )
      )
      (merger): Qwen2_5_VLPatchMerger(
        (ln_q): Qwen2RMSNorm((1280,), eps=1e-06)
        (mlp): Sequential(
          (0): Linear(in_features=5120, out_features=5120, bias=True)
          (1): GELU(approximate='none')
          (2): Linear(in_features=5120, out_features=3584, bias=True)
        )
      )
    )
    (language_model): Qwen2_5_VLTextModel(
      (embed_tokens): Embedding(152064, 3584)
      (layers): ModuleList(
        (0-27): 28 x Qwen2_5_VLDecoderLayer(
          (self_attn): Qwen2_5_VLAttention(
            (q_proj): Linear(in_features=3584, out_features=3584, bias=True)
            (k_proj): Linear(in_features=3584, out_features=512, bias=True)
            (v_proj): Linear(in_features=3584, out_features=512, bias=True)
            (o_proj): Linear(in_features=3584, out_features=3584, bias=False)
            (rotary_emb): Qwen2_5_VLRotaryEmbedding()
          )
          (mlp): Qwen2MLP(
            (gate_proj): Linear(in_features=3584, out_features=18944, bias=False)
            (up_proj): Linear(in_features=3584, out_features=18944, bias=False)
            (down_proj): Linear(in_features=18944, out_features=3584, bias=False)
            (act_fn): SiLUActivation()
          )
          (input_layernorm): Qwen2RMSNorm((3584,), eps=1e-06)
          (post_attention_layernorm): Qwen2RMSNorm((3584,), eps=1e-06)
        )
      )
      (norm): Qwen2RMSNorm((3584,), eps=1e-06)
      (rotary_emb): Qwen2_5_VLRotaryEmbedding()
    )
  )
  (lm_head): Linear(in_features=3584, out_features=152064, bias=False)
)
[INFO:swift] model_parameter_info: Qwen2_5_VLForConditionalGeneration: 8292.1667M Params (44.5745M Trainable [0.5375%]), 0.0019M Buffers.
The tokenizer has new PAD/BOS/EOS tokens that differ from the model config and generation config. The model config and generation config were aligned accordingly, being updated with the tokenizer's values. Updated tokens: {'bos_token_id': None}.
…
